…
activation           (tanh)
delta                (0.5)
batch_size           (128)
buffer_size          (512)
num_epochs           (1)
sgd_lr               (0.01)
adagrad_lr           (0.01)
adam_lr              (0.001)
msa_maxiter          (10)
msa_perturb_init     (0.0)
====================================================================================================
_________________________________________________________________
Layer (type)                 Output Shape              Param #   
=================================================================
conv2d_0 (Conv2D)            (None, 28, 28, 5)         50        
_________________________________________________________________
avg_pool_0 (AveragePooling2D (None, 14, 14, 5)         0         
_________________________________________________________________
conv2d_init (Conv2D)         (None, 14, 14, 5)         230       
_________________________________________________________________
avg_pool_1 (AveragePooling2D (None, 7, 7, 5)           0         
_________________________________________________________________
residualconv2d_0 (ResidualCo (None, 7, 7, 5)           230       
_________________________________________________________________
residualconv2d_1 (ResidualCo (None, 7, 7, 5)           230       
_________________________________________________________________
lower (Lower)                (None, 7, 7, 1)           0         
_________________________________________________________________
flatten (Flatten)            (None, 49)                0         
_________________________________________________________________
dense (Dense)                (None, 10)                500       
=================================================================
Total params: 1,240
Trainable params: 1,240
Non-trainable params: 0
_________________________________________________________________
====================================================================================================
Trainer: MSATrainer (MSA_trainer)
Settings: {'maxiter': 10, 'perturb_init': 0.0}
====================================================================================================
…
