…
bias_init            (0.0)
delta                (0.25)
batch_size           (100)
buffer_size          (100)
num_epochs           (500)
sgd_lr               (0.1)
adagrad_lr           (0.1)
adam_lr              (0.005)
msa_maxiter          (10)
msa_perturb_init     (0.005)
====================================================================================================
_________________________________________________________________
Layer (type)                 Output Shape              Param #   
=================================================================
residualdense_0 (ResidualDen (None, 5)                 30        
_________________________________________________________________
residualdense_1 (ResidualDen (None, 5)                 30        
_________________________________________________________________
residualdense_2 (ResidualDen (None, 5)                 30        
_________________________________________________________________
residualdense_3 (ResidualDen (None, 5)                 30        
_________________________________________________________________
residualdense_4 (ResidualDen (None, 5)                 30        
_________________________________________________________________
residualdense_5 (ResidualDen (None, 5)                 30        
_________________________________________________________________
residualdense_6 (ResidualDen (None, 5)                 30        
_________________________________________________________________
residualdense_7 (ResidualDen (None, 5)                 30        
_________________________________________________________________
residualdense_8 (ResidualDen (None, 5)                 30        
_________________________________________________________________
residualdense_9 (ResidualDen (None, 5)                 30        
_________________________________________________________________
residualdense_10 (ResidualDe (None, 5)                 30        
_________________________________________________________________
residualdense_11 (ResidualDe (None, 5)                 30        
_________________________________________________________________
residualdense_12 (ResidualDe (None, 5)                 30        
_________________________________________________________________
residualdense_13 (ResidualDe (None, 5)                 30        
_________________________________________________________________
residualdense_14 (ResidualDe (None, 5)                 30        
_________________________________________________________________
residualdense_15 (ResidualDe (None, 5)                 30        
_________________________________________________________________
residualdense_16 (ResidualDe (None, 5)                 30        
_________________________________________________________________
residualdense_17 (ResidualDe (None, 5)                 30        
_________________________________________________________________
residualdense_18 (ResidualDe (None, 5)                 30        
_________________________________________________________________
residualdense_19 (ResidualDe (None, 5)                 30        
=================================================================
Total params: 600
Trainable params: 600
Non-trainable params: 0
_________________________________________________________________
====================================================================================================
Trainer: MSATrainer (MSA_trainer)
Settings: {'maxiter': 10, 'perturb_init': 0.005}
====================================================================================================
…
